gemini_161960_96.0.model (torch_old, 530986 bytes, 13 tensors)

linear_input_to_64.weight f4 [64, 1]
0	0xbeff8498	-0.49905849
1	0xbf61afb8	-0.8815875
2	0xbf0dc368	-0.5537629
3	0x3f482b7f	0.7819137
4	0xbf416147	-0.7553906
5	0x3f1828a4	0.5943701
6	0xbf319f42	-0.69383633
7	0xbf10f028	-0.5661645
8	0x3e9e1152	0.3087259
9	0x3e87fe89	0.26561382
10	0x3ebce24b	0.36891398
11	0xbe70a561	-0.23500587
12	0x3e910bff	0.28329465
13	0xbd5a9699	-0.053366277
14	0x3f1cbf9a	0.6122986
15	0x3e82dc21	0.2555857
16	0x3ee9d0da	0.45667154
17	0x3f5e474d	0.86827546
18	0xbf1781dd	-0.5918253
19	0xbea9f4b0	-0.33194494
20	0xbec1fa1a	-0.37886125
21	0xbeaf84d7	-0.34281036
22	0xbdde8bf7	-0.1086654
23	0x3ebe0fea	0.37121516
24	0x3ee2bfc7	0.4428694
25	0xbf10fb7e	-0.56633747
26	0x3ed19985	0.4093744
27	0x3f41a84a	0.75647414
28	0x3f785a9e	0.9701327
29	0xbe80caf5	-0.25154844
30	0xbf354fdd	-0.70824987
31	0xbee96310	-0.4558339
32	0xbee3d295	-0.444966
33	0xbf22c400	-0.6358032
34	0x3f795892	0.9740077
35	0x3f058ea4	0.5217078
36	0xbf2635b1	-0.64925677
37	0xbea55056	-0.32287854
38	0xbf805857	-1.0026959
39	0x3f5e9bf3	0.8695671
40	0x3f4f8890	0.8106775
41	0x3e0ca334	0.13734132
42	0x3e9e0f82	0.30871207
43	0xbf34e924	-0.70668244
44	0x3d9bdf9c	0.076110095
45	0x3eebffb0	0.46093512
46	0x3f7f9d4e	0.998494
47	0x3f75e3d8	0.96050787
48	0xbf305801	-0.68884283
49	0x3f64aa09	0.89321953
50	0x3f23fba6	0.6405586
51	0xbf32d72e	-0.6985959
52	0x3ebd4daf	0.3697333
53	0xbf6166ae	-0.880473
54	0xbf7c570c	-0.98570323
55	0xbb6a2efe	-0.0035733576
56	0x3ecd80e1	0.4013739
57	0x3f491d48	0.78560305
58	0xbe45f382	-0.19331172
59	0x3ef33453	0.47500858
60	0xbf1bcd83	-0.6086046
61	0x3ef0a4f5	0.47000852
62	0x3f469abe	0.7757987
63	0xbf5514f5	-0.832351

linear_input_to_64.bias f4 [64]
0	0xbef2d9d3	-0.47431812
1	0xbf789e12	-0.97116196
2	0xbd325191	-0.04353482
3	0xbf3e21fd	-0.7427061
4	0x3e8e1f8f	0.27758452
5	0x3f3e3713	0.74302787
6	0xbe8aa707	-0.27080557
7	0xbf670056	-0.9023489
8	0xbf19233f	-0.59819406
9	0x3e2b6d88	0.16741002
10	0xbe93450b	-0.28763613
11	0x3cea1296	0.028573316
12	0x3c5f251d	0.013619688
13	0xbe6cfd5d	-0.23143525
14	0xbf19ec7f	-0.6012649
15	0xbf3537ad	-0.7078808
16	0x3ec4288c	0.38312185
17	0x3f093b2f	0.5360593
18	0xbe894c0d	-0.26815835
19	0x3f077188	0.5290761
20	0xbf69c0da	-0.91309893
21	0x3edbf7ed	0.4296259
22	0x396dd3d7	0.00022680998
23	0xbf0d74a7	-0.5525612
24	0x3f1a574d	0.6028946
25	0x3ebbbc4f	0.36667106
26	0x3e3d9aeb	0.18516128
27	0x3f57e0b6	0.84327257
28	0xbdd46327	-0.10370474
29	0xbf111647	-0.5667462
30	0xbeac5a22	-0.33662516
31	0x3f4b0562	0.7930509
32	0x3d5985a8	0.05310598
33	0x3f01cb23	0.5070059
34	0x3f600208	0.875031
35	0xbf0705df	-0.52743334
36	0xbf85d7ca	-1.0456479
37	0x3efe2c35	0.49643102
38	0xbe9fa170	-0.31177855
39	0x3ddb074d	0.10694752
40	0x3f69c797	0.91320175
41	0xbd7a912d	-0.061173607
42	0xbf4d7051	-0.80249506
43	0xbf949bcd	-1.1610047
44	0x3f25029c	0.64457107
45	0x3e114d0c	0.14189547
46	0x3e22029d	0.1582131
47	0x3f81cf41	1.0141374
48	0x3e9a4f27	0.30138513
49	0xbf510402	-0.8164674
50	0xbe4405ff	-0.19142912
51	0x3d9d7cf6	0.0768985
52	0xbf1d823f	-0.61526865
53	0xbf2068dc	-0.6266
54	0x3f0e4560	0.5557461
55	0x3f26d51d	0.65168935
56	0x3f29b1ef	0.6628713
57	0x3ea8b917	0.32953712
58	0x3f522b16	0.82096994
59	0x3e6e6705	0.23281486
60	0xbefac738	-0.48980117
61	0x3f6d9108	0.92799425
62	0x3e2d425f	0.1691985
63	0xbf507fc6	-0.81444967

linear_64_to_128.weight f4 [128, 64]
0	0xbd85c77a	-0.06532188
1	0x3d06c6b8	0.032904357
2	0xbdc520c1	-0.09625388
3	0xbdb2be8e	-0.08727752
4	0xbe004f42	-0.12530234
5	0x3cb34412	0.021883044
6	0xbdc48beb	-0.09597
7	0x3d90a480	0.07062626
8	0x3dc4132b	0.095739685
9	0x3d0745cb	0.033025544
10	0x3df77ccf	0.12084352
11	0x3c363d06	0.011122948
12	0xbbcf4e20	-0.006326452
13	0x3dc79228	0.09744674
14	0x3dc62bb0	0.096763015
15	0x3da5d7e1	0.08097816
16	0x3b78b281	0.0037948193
17	0xbb546a53	-0.0032412007
18	0x3d594a7f	0.05304956
19	0xbd843942	-0.064562336
20	0xbdc3124f	-0.095249765
21	0x3c89df72	0.01683018
22	0x3dbab54f	0.09116613
23	0x3e027a6e	0.12742016
24	0x3bc468cc	0.005993938
25	0x3df35d2a	0.11883004
26	0x3cc234d4	0.023706831
27	0x3d85a882	0.06526281
28	0x3d6c8d0c	0.0577517
29	0xbc89f25c	-0.016839199
30	0x3d3519ca	0.044214047
31	0xbc6e7688	-0.014554627
32	0x3d412b10	0.04716021
33	0x3dd5fe90	0.104489446
34	0xbdd7a19f	-0.10528874
35	0x3db41bc1	0.08794356
36	0x3d928116	0.071535274
37	0x3d2c58d0	0.042076886
38	0xbd3568fb	-0.04428957
39	0xbde03974	-0.10948458
40	0x3dbe81c1	0.09302092
41	0x3dc1a603	0.09455492
42	0x3cd5e961	0.02611226
43	0xbd094963	-0.033517253
44	0x3d560bb8	0.05225727
45	0xbd87284c	-0.06599483
46	0x3db6e994	0.0893127
47	0xbde4f73c	-0.11179969
48	0x3db35513	0.08756461
49	0xbc00a7c0	-0.007852495
50	0xbdb8b73e	-0.09019326
51	0xbbcb502c	-0.0062046256
52	0xbdb62fb2	-0.08895816
53	0xbdc51b6f	-0.09624373
54	0x3dd1340b	0.102150045
55	0xbf072f5d	-0.52806646
56	0x3c0ca415	0.008584042
57	0xbdcb1cb1	-0.09917582
58	0xbd6a5cbb	-0.05721734
59	0xbd828446	-0.063728854
60	0xbce2aeb3	-0.027671194
61	0x3cadefe0	0.021232545
62	0x3ddecd62	0.108790174
63	0xbd10adef	-0.035322126
64	0xbcca0aef	-0.024663417
65	0x3d1dbfe1	0.038513068
66	0xbd22cb9b	-0.039744955
67	0xbb7b7ca8	-0.0038373861
68	0x3d27447a	0.04083679
69	0xbc9752c2	-0.01847208
70	0xbd1ef886	-0.03881123
71	0x3dfcbc2a	0.12340577
72	0x3dc19f52	0.09454216
73	0x3cc09097	0.023506446
74	0xbdb69f4a	-0.08917101
75	0x3d6d9969	0.05800763
76	0xbdb09c67	-0.086235814
77	0xbd645194	-0.05574186
78	0x3dd6fb3a	0.104971364
79	0xbd73cec7	-0.05952337
80	0xbc9746ba	-0.018466342
81	0xbdc171d4	-0.09445539
82	0x3defecea	0.1171511
83	0x3c64219c	0.013924029
84	0xbc51daa2	-0.012808474
85	0xbdbcb527	-0.092142396
86	0x3d5bf506	0.05370047
87	0xbcd86446	-0.026415002
88	0x3dab0cfc	0.08352086
89	0xbc053fa4	-0.008132849
90	0xbd3ec7db	-0.046577316
91	0xbd6b7e21	-0.057493333
92	0xbcb40737	-0.021976097
93	0x3dcfb6f8	0.101423204
94	0xbda24800	-0.07923889
95	0xbd0f780e	-0.035026602
96	0xbd4ddc53	-0.050258946
97	0x3db47ce5	0.08812884
98	0xbe063f4b	-0.13110082
99	0xbe011992	-0.1260741
100	0x3d13edcf	0.036115464
101	0xbd60c2b8	-0.0548732
102	0x3c33e1e4	0.0109791495
103	0x3d44ec45	0.048076887
104	0x3dc6f8bc	0.09715411
105	0xbdb07259	-0.0861556
106	0x3c1364a1	0.00899616
107	0x3ce2ea87	0.027699722
108	0xbb50edb2	-0.0031879959
109	0xbdd9a091	-0.10626329
110	0xbdf2154f	-0.118204705
111	0x3c4fbc29	0.012679138
112	0x3cc8a1e8	0.024491265
113	0xbdeed924	-0.1166251
114	0xbc985454	-0.018594898
115	0xbda3603e	-0.07977341
116	0xbd3e6de6	-0.046491526
117	0x3dae6fdf	0.085174315
118	0x3cd8d2aa	0.02646764
119	0x3d82f6fd	0.063947655
120	0x3d7a1822	0.06105817
121	0xbd2e91d3	-0.042619538
122	0xbd81d687	-0.06339746
123	0xbcfaa86b	-0.030597886
124	0x3d6f9543	0.058491956
125	0x3d18734b	0.037219327
126	0xbd66f3a3	-0.056384694
127	0x3de1ce4c	0.11025676
128	0xbb8f6de3	-0.004377113
129	0xbc2efd69	-0.010680535
130	0xbd66b1ec	-0.056322023
131	0x3dbc1a51	0.09184707
132	0x3d824a26	0.06361799
133	0x3de89a7f	0.11357593
134	0xbdc6b8ad	-0.09703193
135	0xbdaf73ee	-0.08567034
136	0x3da66dca	0.08126409
137	0xbd859b35	-0.06523744
138	0x3d82cb05	0.06386379
139	0xbdca085b	-0.09864875
140	0xbdd69ac5	-0.10478739
141	0x3c03df2a	0.008048812
142	0x3dc43a6b	0.09581455
143	0xbde625a8	-0.11237651
144	0x3d3aa20a	0.04556469
145	0x3d7bcffe	0.061477654
146	0x3d7c8c7b	0.06165741
147	0x3cad4b02	0.02115393
148	0x3d0d67f8	0.03452298
149	0xbc75a0d5	-0.014991959
150	0x3da2e812	0.0795442
151	0xbde91d3c	-0.11382529
152	0x3dee40c8	0.1163345
153	0x3d913459	0.07090063
154	0xbd63cdf2	-0.055616327
155	0x3d5206d3	0.05127604
156	0xbd84d1c6	-0.064853236
157	0x3d250e0d	0.040296603
158	0xbdc57050	-0.096405625
159	0xbd5b55de	-0.053548686
160	0xbdddd4d3	-0.108316086
161	0x3dd6f9a8	0.10496837
162	0x3d776375	0.060397584
163	0xbdd5df0c	-0.104429334
164	0xbdca17ff	-0.09867858
165	0x3c3480e7	0.011017061
166	0xbdae5378	-0.08512014
167	0x3d905475	0.07047359
168	0xbd126ea5	-0.03575005
169	0x3cfd5253	0.030923044
170	0x3e001fc1	0.12512113
171	0x3dd622cd	0.104558565
172	0xbce89af3	-0.028394198
173	0xbdcc801b	-0.09985372
174	0x3d656dc6	0.05601289
175	0x3de15e3a	0.110043004
176	0x3dc8d659	0.098065086
177	0x3dbcf38d	0.09226141
178	0xbd4fe228	-0.05075279
179	0x3bdadcd4	0.006679157
180	0xbb919e76	-0.004443939
181	0x3d5f4b73	0.054515313
182	0xbdb34c25	-0.08754758
183	0x3e81b278	0.25331473
184	0x3dcb2ef1	0.09921063
185	0xbcde491c	-0.02713447
186	0xbd83fcba	-0.06444688
187	0x3dced621	0.100994356
188	0xbdb00016	-0.085937664
189	0xbd8b8088	-0.06811625
190	0xbd80a788	-0.06281954
191	0x3d95e002	0.07318117
192	0x3dc6a31e	0.09699081
193	0x3d40a33d	0.047030676
194	0xbb09a1c5	-0.0021000963
195	0x3dfda7fd	0.12385557
196	0x3d837e6a	0.06420596
197	0xbd171f6a	-0.036895193
198	0x3c5e1be0	0.013556451
199	0x3d1592bc	0.03651689
200	0x3dfa20de	0.122133
201	0x3dce979c	0.10087511
202	0x3d2e022e	0.042482547
203	0xbd1c5e62	-0.038175948
204	0xbdcc8edb	-0.09988185
205	0xbddd0ca0	-0.10793424
206	0xbd3396a3	-0.04384483
207	0xbdaf4a84	-0.085591346
208	0xbdd32228	-0.10309249
209	0x3cd61e9f	0.026137648
210	0xbdb0e7fb	-0.08637997
211	0xbd9f1b53	-0.077688836
212	0xbd1994e8	-0.037495524
213	0x3cf45383	0.029824978
214	0xbe03a15d	-0.12854524
215	0xbda0e60c	-0.07856378
216	0xbd8e77cb	-0.069564424
217	0x3d29f9ca	0.041497983
218	0x3de3fbb6	0.111319944
219	0xbd1a0722	-0.03760446
220	0xb8eca230	-0.00011283567
221	0xbda0e7b2	-0.078566924
222	0xbccc6bb8	-0.024953708
223	0x3d3ec0c9	0.046570573
224	0x3d2e5fac	0.04257171
225	0x3bd6aadb	0.0065511293
226	0x3a3d9bd8	0.00072330004
227	0xbd7a2623	-0.061071526
228	0xbd0fc3d5	-0.03509887
229	0x3d814b66	0.06313209
230	0xbdf33187	-0.11874681
231	0xbd257638	-0.040395945
232	0x3dc49a98	0.09599799
233	0x3c8d118e	0.017220285
234	0xbcbb0459	-0.022829222
235	0xbdb46674	-0.08808604
236	0xbd56a84c	-0.052406594
237	0xbda0912b	-0.078401886
238	0x3dee8c58	0.11647862
239	0xbd913d20	-0.07091737
240	0xbdbdd476	-0.09269039
241	0x3e06f43a	0.13179103
242	0xbdb7cce4	-0.08974627
243	0x3dea3b88	0.11437136
244	0x3d96191d	0.07329009
245	0xbdfe5700	-0.12418938
246	0x3d5f18e1	0.054467086
247	0xbeea3192	-0.45740944
248	0x3d5d1caf	0.053982433
249	0x3d91ca92	0.07118715
250	0xbe045c33	-0.12925796
251	0xbc2c14dd	-0.010503021
252	0x3d7e63ff	0.062107082
253	0xbde5f462	-0.11228253
254	0xbaa5c553	-0.0012647308
255	0xbd2f9f4d	-0.04287653

linear_64_to_128.bias f4 [128]
0	0x3e7ddad8	0.24790514
1	0xbe9c5ce7	-0.3053963
2	0x3e95fa67	0.29292604
3	0x3d9321a3	0.0718415
4	0xbebe6725	-0.37188068
5	0xbe5c8e3f	-0.21538638
6	0xbdbd735a	-0.09250517
7	0x3e559525	0.20857675
8	0x3e92641b	0.28592
9	0x3e431584	0.19051176
10	0x3e2fa7c5	0.17153843
11	0x3e63db0b	0.22251527
12	0x3e0d7d44	0.13817316
13	0xbda2945d	-0.07938454
14	0xbed730c4	-0.42029393
15	0x3ccbda62	0.024884406
16	0x3d9981ec	0.07495484
17	0xbe86c85d	-0.2632474
18	0x3e89f273	0.26942787
19	0x3da46fd2	0.080291405
20	0x3e00bc92	0.12571934
21	0x3ea52ec8	0.32262254
22	0xbeb4e4da	-0.3533085
23	0x3dcf4b0f	0.10121738
24	0xbd53ba6a	-0.05169145
25	0xbcdb6cc3	-0.02678526
26	0x3eaff8d3	0.34369525
27	0xbec4a1d1	-0.38404706
28	0x3ee47ad4	0.4462496
29	0x3e22aa19	0.158852
30	0x3e7c45e4	0.24636036
31	0x3d53a284	0.05166866
32	0xbe14be2b	-0.14525668
33	0xbc00bb30	-0.007857129
34	0xbdd22b0c	-0.10262117
35	0x3e641ab3	0.2227581
36	0xbe564d64	-0.2092796
37	0x3e7cc4a8	0.24684393
38	0x3ebbb8bd	0.36664382
39	0xbd1cf959	-0.038323734
40	0x3c913684	0.01772619
41	0x3eb5dc92	0.35519844
42	0x3e83d1d1	0.25746015
43	0x3df359c1	0.118823536
44	0x3ecfdf39	0.40599993
45	0x3c6edc97	0.01457896
46	0xbe622678	-0.22084987
47	0x3e07e5cc	0.13271254
48	0xbb02fbea	-0.0019986578
49	0x3e6b5b85	0.2298413
50	0x3eb6570e	0.35613292
51	0xbe896b4a	-0.26839668
52	0x3d94843e	0.07251786
53	0x3e795e06	0.24352273
54	0xbedc5dc3	-0.43040285
55	0x3d3ad3f7	0.0456123
56	0x3d80bbcd	0.0628582
57	0xba248bed	-0.0006276954
58	0x3ed82e6f	0.42222926
59	0x3e640707	0.22268306
60	0xbec0b680	-0.37639236
61	0xbe08edd8	-0.1337198
62	0x3e73fdbe	0.23827264
63	0xbd0c8926	-0.034310482
64	0x3ee70885	0.45123687
65	0x3e3a5715	0.18197282
66	0x3e3d1354	0.18464404
67	0x3e65ff1e	0.224606
68	0xbe417e1e	-0.18895766
69	0xbed71c21	-0.42013648
70	0x3e8c1536	0.27359933
71	0x3e68e390	0.22743058
72	0x3ef92f8f	0.48669097
73	0x3ecd963e	0.40153688
74	0x3ed494bd	0.41519728
75	0x3d333a4e	0.043756776
76	0x3e45b6cf	0.19308017
77	0x3df8b056	0.121430084
78	0x3e326e87	0.17424975
79	0x3e8a765d	0.2704343
80	0x3e406501	0.1878853
81	0x3e4c0365	0.1992317
82	0x3e84bc48	0.25924897
83	0x3caa1b5e	0.020765003
84	0x3e80ab89	0.2513087
85	0xbe560236	-0.20899281
86	0x3d0f5715	0.034995157
87	0x3e32c7bc	0.17459005
88	0x3e24a344	0.16077906
89	0x3e80f74e	0.25188679
90	0x3efb9b54	0.49141943
91	0x3e0f56b2	0.13997915
92	0xbdc751dd	-0.09732411
93	0x3e1ad056	0.15118536
94	0xbd231a37	-0.039819922
95	0x3e7da1eb	0.24768798
96	0xbed25fa3	-0.4108859
97	0x3e86f1a5	0.26356235
98	0xbeb4f2c1	-0.35341457
99	0x3ee6a814	0.45050108
100	0x3e273dfb	0.16332237
101	0x3e923f21	0.2856379
102	0x3df61090	0.12014878
103	0x3e482c72	0.19548205
104	0x3e807738	0.25090957
105	0x3ef6829b	0.4814652
106	0x3e4a4e69	0.19756474
107	0xbef3a095	-0.47583452
108	0x3e5c6db5	0.21526225
109	0x3eb9cf36	0.36290902
110	0x3ed35140	0.41272926
111	0x3e7416e7	0.23836862
112	0x3e042dce	0.12908098
113	0x3e70c633	0.23513107
114	0x3e8e93ac	0.2784704
115	0x3e7ef6c2	0.24898818
116	0xbe86de9a	-0.26341707
117	0x3e5cd4fb	0.2156562
118	0x3e731206	0.23737344
119	0x3e4d102e	0.20025703
120	0x3e07fe19	0.13280524
121	0x3e3f5515	0.186848
122	0x3e971cd6	0.29514188
123	0x3c5a1a1e	0.013311891
124	0x3e103bb0	0.14085269
125	0x3e63ec12	0.22258022
126	0x3eb78fcc	0.35851896
127	0xbeb00349	-0.34377506

linear_128_to_128.weight f4 [128, 128]
0	0x3daab283	0.0833483
1	0x3d3cc415	0.046085436
2	0xbcf8efa6	-0.03038771
3	0xbc32cef1	-0.0109135965
4	0x3c9e5357	0.019326849
5	0xbd3e4160	-0.046449065
6	0x3d52b6c9	0.05144385
7	0xbd1c8875	-0.038216073
8	0x3daf0932	0.08546676
9	0xbce59821	-0.028026642
10	0xbc870b20	-0.016484797
11	0xbd8d663f	-0.069042675
12	0xbd9aeb5b	-0.07564422
13	0xbd0af554	-0.03392537
14	0xbd9d32ba	-0.07675691
15	0x3a7956e3	0.00095115433
16	0xbdc01563	-0.09379079
17	0x3d33c058	0.043884605
18	0x3ce2489a	0.02762251
19	0x3cf52d08	0.0299287
20	0xbb3cc336	-0.0028802878
21	0x3c6fddc7	0.014640278
22	0x3d96995e	0.07353471
23	0xbda2c2c1	-0.079473026
24	0x3d803539	0.062601514
25	0x3d13a4cd	0.03604584
26	0xbd9196e2	-0.07108857
27	0xbd2fd551	-0.042928044
28	0xbd17fc94	-0.03710611
29	0x3c4d7b15	0.012541552
30	0xbd2d86a7	-0.042364743
31	0xbc06e630	-0.008233592
32	0x3c3cad4d	0.0115159275
33	0xbd52a326	-0.05142512
34	0xbda05c6d	-0.07830129
35	0x3d82487e	0.06361483
36	0x3d82ca54	0.06386247
37	0x3c8ab093	0.0169299
38	0x3ae5a8b0	0.0017521586
39	0xbd57f150	-0.052720368
40	0xbda89682	-0.08231832
41	0x3bc83022	0.0061092535
42	0x3d14ad7a	0.036298253
43	0x3dc37205	0.09543232
44	0x3ccbb7e1	0.024867954
45	0xbccb0aa6	-0.024785351
46	0xbd15f718	-0.0366126
47	0xbd93f0bd	-0.072236516
48	0xbc44564f	-0.011983468
49	0x3cac858a	0.02105977
50	0xbd3b47b7	-0.04572269
51	0xbc06f03b	-0.008235986
52	0x3da1d305	0.07901577
53	0x3dbc6f1e	0.092008814
54	0xbcf807d9	-0.03027718
55	0x3db0e6a4	0.08637741
56	0xbd572cbe	-0.052532904
57	0xbda2756e	-0.07932554
58	0xbd8c9063	-0.06863477
59	0xbd615434	-0.055011943
60	0x3d6a3df5	0.057187993
61	0xbd1fd651	-0.039022747
62	0x3d153c33	0.036434364
63	0xbda06d28	-0.0783332
64	0x3badd899	0.0053053615
65	0x3d1ee278	0.038790196
66	0x3db3a722	0.087721124
67	0xbd0937ad	-0.033500362
68	0xbdc2ac7d	-0.09505556
69	0x3dc33960	0.09532428
70	0x3daf2ea8	0.08553821
71	0x3dbc61fb	0.09198376
72	0xbd8e0805	-0.06935123
73	0x3d1a0bac	0.037608787
74	0xbd1bf240	-0.038072824
75	0x3db852d1	0.09000171
76	0x3d5e42c4	0.05426289
77	0x3b2867c3	0.0025696612
78	0x3db609f0	0.08888614
79	0xbbb1a0ee	-0.0054207956
80	0xbce7f304	-0.028314121
81	0x3cb56cec	0.022146665
82	0x3daff184	0.08590987
83	0x3d84d906	0.064867064
84	0x3d1a730a	0.037707366
85	0xbc9ac694	-0.018893518
86	0xbc85da95	-0.01633958
87	0x3d89c2f4	0.067266375
88	0x3c97fcba	0.018553127
89	0xbce9b01a	-0.028526355
90	0xbd1b039c	-0.03784524
91	0x3ba7b221	0.00511767
92	0xbd789ff0	-0.060699403
93	0xbd9a280b	-0.07527169
94	0xbcdc5c94	-0.026899613
95	0xbda2b397	-0.0794441
96	0xbd97b076	-0.07406704
97	0xbd02a232	-0.031892963
98	0xbdb81a96	-0.08989446
99	0x3ca2f5ea	0.019892652
100	0x3cfdcebf	0.030982373
101	0x3d79be2a	0.06097237
102	0xbd0c9aac	-0.034327194
103	0x3d805170	0.06265533
104	0x3d8c0cd8	0.06838387
105	0x3be325ab	0.0069319806
106	0xbd8f9b46	-0.07012038
107	0x3bb0ad46	0.0053917496
108	0x3d880bbc	0.06642863
109	0x3d49ea91	0.049295966
110	0x3c8f31b8	0.017479762
111	0xbd9d2d2d	-0.07674632
112	0x3d8b212d	0.06793437
113	0xbd9ad6d2	-0.07560505
114	0xbceb2163	-0.028702443
115	0xbcc72f49	-0.02431454
116	0xbb0ec84a	-0.0021786862
117	0xbd5a54d3	-0.05330355
118	0x3cb4450b	0.022005579
119	0x3daac465	0.083382405
120	0x3ce3e33c	0.027818315
121	0x3db35e91	0.087582715
122	0x3d98ce66	0.074612424
123	0x3d8ea5ac	0.06965193
124	0xbc3e0247	-0.011597223
125	0xbd022956	-0.031777702
126	0x3d2cce85	0.04218914
127	0xbdaed100	-0.08535957
128	0xbd6d8673	-0.05798955
129	0x3dab8c6b	0.08376392
130	0xbd7ae194	-0.061250284
131	0x3ca08923	0.019596642
132	0xbd9ed412	-0.07755293
133	0xbdb714a3	-0.08939483
134	0x3d2ffd54	0.042966202
135	0x3b66bb4d	0.0035206855
136	0x3d80ab1b	0.06282636
137	0xbd0fe708	-0.035132438
138	0xbd832a03	-0.064044975
139	0x3c528194	0.012848277
140	0x3d956f02	0.07296564
141	0x3d538a6b	0.051645678
142	0x3c7e5a26	0.015524423
143	0xbcd33ecc	-0.02578678
144	0x3daf2b1b	0.085531436
145	0x3dba4275	0.09094707
146	0x3b9e4f7c	0.0048312526
147	0xbda48bf2	-0.08034505
148	0x3d0d3c67	0.034481432
149	0x3d62e799	0.05539665
150	0xbda2b7cd	-0.079452135
151	0x3d686d4d	0.056744862
152	0x3d207f15	0.039183695
153	0x3d8f877b	0.07008263
154	0x3da23c69	0.079216786
155	0xbd8c4171	-0.068484195
156	0x3d6e70b7	0.058212962
157	0xbcf0f360	-0.029412925
158	0x3c95bf2c	0.018279634
159	0xbc7fbdce	-0.015609218
160	0xbd7cd68e	-0.061728053
161	0x3d5c8766	0.053840064
162	0x3bdbe745	0.006710919
163	0x3d40380c	0.04692845
164	0x3d937346	0.07199721
165	0x3d7944f1	0.060856763
166	0x3d5365d3	0.05161078
167	0x3cd24325	0.025666783
168	0xbcf4ed64	-0.029898353
169	0xbd31f881	-0.043449882
170	0x3d491821	0.049095277
171	0xbd035d63	-0.032071482
172	0xbc9e2808	-0.019306198
173	0xbdb47572	-0.088114634
174	0xbd25da83	-0.040491592
175	0xbd9c9912	-0.07646383
176	0x3d1200c1	0.03564525
177	0xbcf87b8e	-0.030332353
178	0xbd0e8cee	-0.03480237
179	0x3d84ef81	0.06490994
180	0xbd3f11d2	-0.046647854
181	0x3d1f450e	0.038884215
182	0xbd81abd7	-0.06331604
183	0x3c43bf59	0.011947476
184	0xbb5eaac7	-0.0033976303
185	0xbdbda3cf	-0.0925976
186	0xbcb1914b	-0.021675726
187	0xbd9cdeb0	-0.07659662
188	0xbc4f392f	-0.012647911
189	0x3db03781	0.086043365
190	0x3d43f340	0.047839403
191	0xbc4d0378	-0.012513034
192	0xbdb785e8	-0.089610875
193	0xbd8d15be	-0.068889126
194	0x3bf8d72c	0.00759401
195	0xbd3e842a	-0.04651276
196	0x3ce62d0a	0.028097648
197	0x3a102f79	0.0005500238
198	0xbcb64564	-0.022249885
199	0xbd9a2413	-0.07526412
200	0xbced429e	-0.02896243
201	0xbcf6e9ea	-0.030140836
202	0xbd225db1	-0.039640132
203	0x3c8c7cb3	0.017149305
204	0xbd86ab2d	-0.06575618
205	0xbd936c0c	-0.07198343
206	0xbd728a8a	-0.059214152
207	0x3d0d77b0	0.03453797
208	0x3b721359	0.0036937802
209	0x3da37df5	0.07983009
210	0xbd0a6f68	-0.03379765
211	0x3d58a0d6	0.05288776
212	0xbdb4159b	-0.087931834
213	0x3d4ecc8a	0.050488032
214	0xbcb6a597	-0.022295756
215	0x3d748292	0.059694834
216	0xbd64ac98	-0.05582866
217	0xbd828333	-0.063726805
218	0xbcb46ac6	-0.02202357
219	0x3b46b6ea	0.0030321428
220	0xbccb65bf	-0.02482879
221	0x3d9acb5b	0.07558318
222	0x3d9f27b3	0.07771244
223	0xbdc43e2f	-0.09582173
224	0xbd45d3ae	-0.048297577
225	0xbc8e6585	-0.017382393
226	0xbd405e60	-0.046965003
227	0x3c8066e9	0.015674071
228	0x3d8aff58	0.06786984
229	0xbdb0acde	-0.08626722
230	0xbd435c36	-0.04769536
231	0xbd3edf05	-0.046599407
232	0xbd26739b	-0.040637594
233	0xbc7766ce	-0.015100194
234	0x3ccbede1	0.024893703
235	0x3d89bcd3	0.067254685
236	0xbd215076	-0.039383374
237	0xbc85ac0d	-0.016317392
238	0x3d8bca34	0.068256766
239	0xbc960803	-0.018314367
240	0x3d82c287	0.063847594
241	0xbd2040eb	-0.03912441
242	0xbca39ee4	-0.019973226
243	0x3d899a66	0.06718902
244	0x3d0077b1	0.031364147
245	0xbd807601	-0.062725075
246	0xbc9b495a	-0.018955875
247	0x3d83f57b	0.06443306
248	0xbdaa2454	-0.0830771
249	0x3bf9d6c5	0.0076244795
250	0xbd4392e4	-0.047747508
251	0x3d69e866	0.057106398
252	0x3d1bf045	0.038070936
253	0x3d8a5928	0.067552865
254	0xbc8c845b	-0.017152956
255	0x3d97ca3b	0.07411619

linear_128_to_128.bias f4 [128]
0	0x3e405e50	0.18785977
1	0xbe383a22	-0.17990926
2	0x3e12f6ba	0.14351931
3	0x3e833553	0.2562662
4	0xbe71a229	-0.23597015
5	0x3ee97aa3	0.45601377
6	0xbd429826	-0.04750838
7	0x3e5c9bac	0.21543759
8	0x3e92beb9	0.28661135
9	0xbe033d5e	-0.12816378
10	0x3e8349c4	0.25642216
11	0x3e9bd540	0.30436134
12	0x3ece2168	0.40259862
13	0x3ea18371	0.31545594
14	0x3dccc6ff	0.09998893
15	0x3e7a7ecd	0.24462433
16	0xbe80e7c7	-0.25176832
17	0xbd871793	-0.06596293
18	0x3ecef2e1	0.40419677
19	0x3e8382e4	0.256858
20	0x3e0c1437	0.13679586
21	0x3e43b681	0.19112588
22	0x3e12387a	0.14279357
23	0x3eeb727f	0.4598579
24	0xbd2f7fcd	-0.04284649
25	0x3e9805d2	0.2969194
26	0xbe903a53	-0.28169498
27	0x3d9c5055	0.076325096
28	0x3eb391c3	0.35072145
29	0x3e21ee9f	0.15813683
30	0x3e45fb18	0.19334066
31	0xbe7d9f72	-0.24767855
32	0xbec81838	-0.39080977
33	0x3e412406	0.18861398
34	0x3e0b8197	0.13623653
35	0x3ecd5517	0.4010398
36	0xbd51d667	-0.05122986
37	0x3ede3e34	0.43406832
38	0x3e9126c8	0.283499
39	0x3c0d02ad	0.008606595
40	0x3ea6e4a0	0.32596302
41	0x3e9dcd5f	0.30820748
42	0x3ec24bc9	0.37948444
43	0x3ea09219	0.31361464
44	0x3e8d7445	0.2762777
45	0x3eae9e4c	0.34105146
46	0x3eac43d8	0.3364551
47	0x3d8055a6	0.06266336
48	0x3e496e5b	0.19671004
49	0x3e4172c7	0.1889144
50	0x3e1b5aad	0.15171309
51	0xbe1b7a2a	-0.1518332
52	0x3db23a52	0.0870253
53	0x3de9ec46	0.11422019
54	0x3d5223ab	0.051303547
55	0x3df7d54a	0.121012285
56	0x3ebf7732	0.37395626
57	0x3d1e6374	0.038669065
58	0x3eab331b	0.33437428
59	0x3e8b824d	0.2724785
60	0xbcfb7e95	-0.030700007
61	0xbd471eb7	-0.048613276
62	0x3ee0ea58	0.4392879
63	0x3dd953a5	0.10611657
64	0x3dd62894	0.104569584
65	0xbe5d2286	-0.21595201
66	0x3ed8cb5a	0.42342645
67	0x3e6200e2	0.2207065
68	0xbeb8e55c	-0.36112487
69	0xbeefd911	-0.46845296
70	0x3eb355e7	0.35026476
71	0x3e3efc76	0.18650994
72	0x3da0bd8a	0.07848652
73	0x3e997825	0.29974476
74	0x3eee5b16	0.46553868
75	0x3ebfc775	0.3745686
76	0xbba7d604	-0.005121948
77	0x3ee52b81	0.44759753
78	0x3ebb821e	0.3662271
79	0xbea24912	-0.31696373
80	0x3ec86e01	0.39146426
81	0x3ed7f4d0	0.42178965
82	0x3e24f1cd	0.16107865
83	0x3ea37edd	0.31932727
84	0x3e958f52	0.29210907
85	0xbee962bf	-0.4558315
86	0x3e4e70cc	0.20160216
87	0x3ed36f8d	0.41296044
88	0x3e7a001d	0.24414106
89	0xbe5c5e14	-0.21520263
90	0x3e6d59dd	0.23178811
91	0x3e2735f0	0.1632917
92	0x3eb51658	0.3536861
93	0x3e88a8a2	0.26691157
94	0x3e071bfc	0.13194269
95	0xbd29da20	-0.041467786
96	0xbd2284fb	-0.0396776
97	0x3d0bfc3e	0.034176104
98	0xbd8fc3d5	-0.07019774
99	0x3ec13a38	0.3773973
100	0x3e3664b8	0.17811859
101	0x3e21809c	0.15771717
102	0x3e783bfb	0.2424163
103	0x3e7c7949	0.24655642
104	0x3e15439d	0.14576574
105	0x3e7cbcb2	0.24681357
106	0x3e233c1a	0.15940896
107	0x3d402cfd	0.046917904
108	0x3eaeac47	0.34115812
109	0x3e07dd68	0.13268054
110	0x3db54606	0.088512465
111	0xbecb7745	-0.39739433
112	0x3ebb0328	0.36525846
113	0x3e3cbeb1	0.18432118
114	0x3e2a0232	0.166024
115	0x3ebf3dc6	0.37351817
116	0x3ed4465e	0.41459936
117	0x3e9e5c76	0.30929917
118	0xbe36ec79	-0.17863645
119	0x3e89e77e	0.26934427
120	0x3e98e2ff	0.29860684
121	0x3e95f680	0.29289627
122	0x3ea15eca	0.3151763
123	0xbec6cf5b	-0.38830075
124	0x3f0f3565	0.5594085
125	0x3ea0e070	0.31421232
126	0x3ea14ab7	0.31502315
127	0x3d4a2543	0.04935194

linear_128_to_192.weight f4 [192, 128]
0	0xbd100fcf	-0.035171326
1	0xbd1e84c6	-0.03870084
2	0x3d53f308	0.051745445
3	0x3b8e1eda	0.004337174
4	0xbd3f895d	-0.04676186
5	0xbdb9c72a	-0.09071191
6	0x3d8fe7ef	0.0702666
7	0xbdb81ec7	-0.08990245
8	0xbcf60c58	-0.030035183
9	0x3cd2ce71	0.025733205
10	0x3cf86bf4	0.030324914
11	0xbd42ebea	-0.047588266
12	0x3d1cb503	0.038258564
13	0x3d739ef0	0.059477746
14	0x3c5de840	0.013544142
15	0x3d8b5650	0.06803572
16	0x3da39dcb	0.07989081
17	0x3d93ff78	0.07226461
18	0xbd9feae1	-0.078084715
19	0xbadd29ae	-0.0016873383
20	0xbc3bceac	-0.011462849
21	0x3ce5ab01	0.028035643
22	0xbd4b4fcd	-0.04963665
23	0xbd986ae1	-0.074422605
24	0xbd62096f	-0.055184778
25	0xbd82a4e7	-0.06379109
26	0x3dd1b25c	0.102390975
27	0x3cfb57df	0.030681549
28	0xbd09d3e3	-0.033649337
29	0xbd5e727d	-0.054308403
30	0x3d894725	0.06703023
31	0xbd030355	-0.0319856
32	0x3d4f0f77	0.050551858
33	0x3d03cc8f	0.032177504
34	0xbc7a14b2	-0.015263723
35	0xbc01c15e	-0.0079196375
36	0xbd86a504	-0.06574443
37	0x3e18d882	0.14926341
38	0x3c94bc0c	0.018156074
39	0xbd7026f7	-0.05863091
40	0xbd34aa9a	-0.04410801
41	0xbd417f2d	-0.047240425
42	0xbd76407e	-0.0601201
43	0x3d1b0550	0.037846863
44	0xbcd9de2d	-0.0265952
45	0xbd08dc84	-0.033413425
46	0x3ca9769f	0.020686446
47	0xbd7b7842	-0.061393984
48	0x3d9a675e	0.07539247
49	0x3d106b49	0.035258565
50	0xbd803469	-0.062599964
51	0xbccbb2ae	-0.024865475
52	0xbd6fcd93	-0.05854566
53	0x3c8965ee	0.016772237
54	0x3ccf137f	0.025277851
55	0xbd90f3e1	-0.07077766
56	0x3d5f89aa	0.054574646
57	0x3daa09b3	0.08302631
58	0xbc949da0	-0.018141568
59	0xbdc39387	-0.09549623
60	0xbdaa8e85	-0.08327965
61	0x3d9c71ae	0.0763887
62	0xbcb5ae78	-0.02217792
63	0x3d81af35	0.06332246
64	0x3d74d55b	0.059773784
65	0xbd9441c4	-0.07239106
66	0x3e43d500	0.19124222
67	0xbd5d2be9	-0.053996954
68	0xbd85afcb	-0.065276705
69	0x3da0436d	0.078253604
70	0x3cd40d1c	0.025885157
71	0x3d1061c4	0.035249487
72	0x3d8b4845	0.06800894
73	0x3ca776f6	0.020442467
74	0xbbc1908b	-0.0059071234
75	0xbd33c4f3	-0.043888997
76	0xbce29d77	-0.027662976
77	0xbd89ba14	-0.06724945
78	0x3d43a721	0.04776681
79	0x3cbae6ea	0.022815187
80	0xbd2426ec	-0.04007618
81	0x3b9680a0	0.00459297
82	0x3b48075c	0.0030521965
83	0xbd433dde	-0.047666423
84	0x3d790b2d	0.060801674
85	0x3dae0d49	0.08498628
86	0xbda58be6	-0.08083324
87	0xbc666c1d	-0.014063862
88	0xbd7b1ee1	-0.061308745
89	0x3dc12e2c	0.09432635
90	0x3cf86d95	0.03032569
91	0xbd8fdf83	-0.07025053
92	0xbda29cb2	-0.079400435
93	0xbd054c28	-0.03254333
94	0x3c58497a	0.013201112
95	0xbcba5424	-0.0227452
96	0xbdb03d5c	-0.08605453
97	0x3a2e01de	0.00066378515
98	0x3d3d591f	0.04622757
99	0x3cd7e43d	0.02635395
100	0x3d470eb1	0.048597995
101	0x3b355054	0.0027666287
102	0x3cd0ee7a	0.02550434
103	0x3ba01ccd	0.004886246
104	0x3d8d8c0a	0.06911476
105	0x3c1ed105	0.009693389
106	0xbd6686d9	-0.056280944
107	0xbc23d624	-0.009999786
108	0xbd57c97f	-0.052682396
109	0xbd9d34ea	-0.07676108
110	0x3da64964	0.08119467
111	0x3df2df6c	0.118590206
112	0xbd135df4	-0.035978273
113	0xbd8cbb5e	-0.06871675
114	0xbcc42afe	-0.023946282
115	0xbdb7b1d6	-0.089694664
116	0xbd0c1d7a	-0.0342078
117	0x3d0f48d8	0.03498158
118	0xbceceba3	-0.028920954
119	0xbd46d89b	-0.048546415
120	0x3d8c10a9	0.06839115
121	0x3d4e0115	0.050294
122	0x3d8abe70	0.06774604
123	0x3d6b70bf	0.05748057
124	0x3e84e901	0.25959018
125	0xbd49efcc	-0.049300954
126	0xbd3c0d95	-0.04591139
127	0xbdb9bfed	-0.0906981
128	0xbca44eee	-0.020057168
129	0xbc95a69b	-0.01826792
130	0xbb1d7cac	-0.002403061
131	0x3bbc7536	0.0057512773
132	0x3d65cb45	0.056102056
133	0x3dbf29ab	0.093341194
134	0x3dad57b8	0.08463997
135	0xbd604eda	-0.0547627
136	0xbcfdca33	-0.030980205
137	0x3ce27321	0.027642788
138	0x3bfbf04c	0.0076885577
139	0x3d31e86b	0.04343454
140	0x3c98e04b	0.018661639
141	0xbecf123c	-0.404436
142	0x3dba2fce	0.09091149
143	0xbc0a5402	-0.008442881
144	0xbdb328ae	-0.087479934
145	0x3c810d44	0.015753396
146	0x3e6cd3c9	0.23127665
147	0xbd964343	-0.07337048
148	0x3d9b8ec7	0.07595592
149	0xbcdf2f5a	-0.027244259
150	0x3da71499	0.081582256
151	0x3d5e7a76	0.054316007
152	0xbc13b67d	-0.009015677
153	0xbd32f9a5	-0.04369511
154	0xbd23a7ee	-0.039955072
155	0x3d155445	0.03645732
156	0x3d43f836	0.047844134
157	0x3bb42dcd	0.005498624
158	0xbda74635	-0.08167688
159	0x3c55abb5	0.013041426
160	0xbcd5bb96	-0.026090425
161	0xbb421b24	-0.0029618228
162	0xbd547296	-0.05186709
163	0xbcc0cc5f	-0.023534952
164	0x3d27e10d	0.04098611
165	0xbea923a6	-0.3303501
166	0xbcd7084b	-0.026249072
167	0x3c97aae9	0.018514114
168	0x3da54dc8	0.08071476
169	0xbb86cb67	-0.004113603
170	0x3c5c4464	0.01344404
171	0xbcc840af	-0.024444906
172	0xbe803ded	-0.25047246
173	0x3d9a8af4	0.075460345
174	0xbd089830	-0.033348262
175	0x3d20ac22	0.03922666
176	0x3da5b06f	0.08090293
177	0xbcba8ccf	-0.02277222
178	0xbcb303d5	-0.021852413
179	0xbd27beb7	-0.040953364
180	0x3ba5e69f	0.0050628926
181	0xbda18685	-0.07886986
182	0x3cc1acfe	0.02364206
183	0xbb23e428	-0.0025007818
184	0x3d16b7bb	0.036796313
185	0xbbd2bc28	-0.0064311214
186	0xbd7b3804	-0.061332718
187	0xbd7e7a3a	-0.062128283
188	0xbc237aba	-0.009977991
189	0xbdb12004	-0.086486846
190	0xbdb37518	-0.08762568
191	0xbc91f4b4	-0.017816879
192	0xbda3c9b0	-0.07997453
193	0xbdb29dfb	-0.08721539
194	0xbec23edd	-0.37938586
195	0xbc308aae	-0.010775251
196	0x3c9832a7	0.01857884
197	0xbe5669a6	-0.20938739
198	0xbd758eeb	-0.05995075
199	0x3a21e087	0.000617512
200	0x3da7d2f6	0.081945345
201	0x3d72cc41	0.059276823
202	0x3c50e1d7	0.012749157
203	0x3da6898f	0.08131706
204	0x3d137526	0.036000393
205	0xbc9937ae	-0.018703308
206	0x3d855abb	0.06511446
207	0xbdb6add2	-0.08919872
208	0x3d89fccc	0.0673767
209	0x3db89ed3	0.09014668
210	0x3d248548	0.04016617
211	0xbcf33909	-0.029690282
212	0x3d87e5b5	0.0663561
213	0xbcf589df	-0.029972969
214	0xbcb42529	-0.021990376
215	0x3d82b07b	0.06381317
216	0xbd86f620	-0.06589913
217	0xbe44c66c	-0.19216317
218	0x3d6a2df3	0.057172727
219	0x3dc0d558	0.09415692
220	0xbd793fe7	-0.060851958
221	0xbc1e16e0	-0.0096490085
222	0xbd3dd555	-0.046346027
223	0x3d82e15f	0.063906424
224	0x3c974430	0.018465132
225	0x3cf2b136	0.029625516
226	0x3d93c5fc	0.07215497
227	0x3d3f75a6	0.046743058
228	0xbda5df42	-0.08099224
229	0xbca204b8	-0.01977764
230	0xbd65459d	-0.05597459
231	0x3d856715	0.06513802
232	0x3d4a6681	0.04941416
233	0x3d3996cd	0.04530983
234	0xbd6c1a2a	-0.05764214
235	0x3dba5563	0.090983175
236	0x3ba58a95	0.0050519207
237	0xbd928423	-0.07154109
238	0x3da96f9d	0.08273242
239	0xbe703538	-0.23457801
240	0x3d4f46a1	0.050604466
241	0x3d51692f	0.0511257
242	0xbd7a4ff5	-0.06111141
243	0xbc111d0d	-0.008857024
244	0xbd5f02df	-0.054446097
245	0xbd5091fb	-0.050920468
246	0xbd8c40eb	-0.068483196
247	0xbe935cad	-0.28781644
248	0xbd4b13a6	-0.049579285
249	0xbc8fc21f	-0.017548619
250	0x3c1a368a	0.009412417
251	0x3d636c84	0.05552341
252	0x3e7d0853	0.24710207
253	0x3c9afeaa	0.018920261
254	0x3d8d0bc1	0.068870075
255	0xbd65a050	-0.05606109

linear_128_to_192.bias f4 [192]
0	0xbeb2c413	-0.34915218
1	0x3e04d474	0.1297167
2	0xbe2b6931	-0.16739346
3	0xbe3a9268	-0.18219912
4	0x3ea2f867	0.3183014
5	0x3de61077	0.11233609
6	0x3c87980e	0.016551998
7	0x3e974d2f	0.29551074
8	0x3e93a0b6	0.2883355
9	0xbf0c9315	-0.5491193
10	0x3e1ce904	0.15323263
11	0x3eb6a70f	0.3567433
12	0x3c908f0c	0.017646335
13	0x3d348674	0.044073537
14	0x3dcc8948	0.09987122
15	0x3e01a339	0.12659921
16	0x3dc558e3	0.096360944
17	0xbe8d095b	-0.275462
18	0x3ea8770f	0.32903334
19	0xbd526239	-0.051363204
20	0x3e2e89fa	0.17044821
21	0xbda335ec	-0.07969269
22	0x3e070219	0.13184394
23	0x3e8c2cbd	0.27377883
24	0x3dc1f0e4	0.09469774
25	0xbecc6cba	-0.39926702
26	0xbe538e51	-0.20659758
27	0xbe6f30b7	-0.23358427
28	0xbe8008c4	-0.25006688
29	0x3e520813	0.20510893
30	0xbed7c3dc	-0.42141616
31	0xbeaf78fa	-0.34271985
32	0x3e16d540	0.14729786
33	0xbe418735	-0.18899234
34	0xbc86309c	-0.0163806
35	0xbe2d0e54	-0.16899997
36	0xbe622751	-0.2208531
37	0xbe7b858c	-0.24562663
38	0xbe84d7b2	-0.25945812
39	0xbc9f8cb8	-0.01947628
40	0xbd84538f	-0.0646125
41	0xbec6ff06	-0.38866442
42	0xbe83b39a	-0.25722963
43	0xbe0d5285	-0.1380101
44	0xbebacd2a	-0.36484653
45	0xbdd6ae7e	-0.104825005
46	0xbe366a18	-0.17813909
47	0x3e9c20d8	0.30493808
48	0xbee85628	-0.45378232
49	0xbe9d2574	-0.30692637
50	0x3e7698bd	0.24081703
51	0xbef5be21	-0.4799662
52	0x3e908ccb	0.28232417
53	0xbb59a586	-0.0033210232
54	0x3e503da3	0.20336013
55	0x3e6524d5	0.22377332
56	0x3e63b261	0.22236015
57	0xbd3e9ba7	-0.04653516
58	0x3e5c5e12	0.2152026
59	0x3e52510b	0.20538728
60	0x3e19615d	0.14978547
61	0x3e48ace8	0.19597208
62	0x3dfa5974	0.12224093
63	0x3e839e51	0.25706723
64	0xbe1f7981	-0.15573694
65	0xbe9396a0	-0.28825855
66	0xbec6c58d	-0.38822594
67	0x3eb9d967	0.36298677
68	0x3ded8d1e	0.115991816
69	0x3eb41e73	0.3517948
70	0x3e1d4128	0.15356886
71	0xbe2b6822	-0.16738942
72	0xbeb1d823	-0.34735212
73	0xbea5232e	-0.32253402
74	0x3e31bb39	0.17356576
75	0x3e3810c7	0.1797515
76	0x3e948c51	0.29013303
77	0x3e13e5a2	0.14443067
78	0xbea195dd	-0.3155965
79	0x3e934095	0.2876021
80	0xbeb497e7	-0.35272142
81	0x3e7a2f50	0.24432111
82	0xbea49395	-0.32143846
83	0xbeb2c68b	-0.349171
84	0xbe98366d	-0.29729024
85	0x3dee0143	0.116213344
86	0xbe8fb677	-0.28068897
87	0xbe8cac22	-0.27475077
88	0xbe8332e7	-0.25624773
89	0xbe210041	-0.15722753
90	0xbe576e89	-0.2103826
91	0x3e87bdc1	0.26511958
92	0x3ea976ea	0.33098537
93	0x3e9e7eca	0.30956107
94	0x3e97201e	0.2951669
95	0x3e41e56d	0.18935175
96	0xbdfc17c4	-0.123092204
97	0x3d0a3b99	0.033748243
98	0xbe144b87	-0.14481936
99	0x3e897b1e	0.26851743
100	0xbe0c16f2	-0.13680628
101	0x3e90c7da	0.28277475
102	0xbead565b	-0.33854946
103	0x3ea18560	0.3154707
104	0xbe82fd4c	-0.25583875
105	0xbe90a3a7	-0.28249857
106	0xbea34bec	-0.3189386
107	0x3e7abbdf	0.2448573
108	0x3df77fd7	0.120849304
109	0x3e6c0f35	0.23052676
110	0x3e82ad3e	0.25522798
111	0xbe538eff	-0.20660017
112	0x3e93fc56	0.28903455
113	0x3e3a341f	0.18183945
114	0xbebe2ac7	-0.37142012
115	0x3e31275f	0.17300175
116	0x3eab2499	0.3342636
117	0xbe23deb2	-0.1600292
118	0x3e232074	0.15930349
119	0xbe0c077a	-0.13674727
120	0x3ea3c5d6	0.31986874
121	0xbeee9cb0	-0.46603918
122	0x3e1d915c	0.15387481
123	0xbe12812c	-0.14307088
124	0x3e3de9a0	0.18546152
125	0x3d95d117	0.07315271
126	0xbed0a0c5	-0.40747657
127	0x3e979a7b	0.29610047
128	0xbe497eac	-0.19677228
129	0xbe5a2f1f	-0.21307038
130	0xbe43dff2	-0.19128397
131	0xbe5c13eb	-0.21491973
132	0x3e192bf9	0.1495818
133	0x3e84e4aa	0.25955707
134	0xbe5ea783	-0.21743588
135	0x3eb8cf64	0.36095726
136	0xbeca0dc7	-0.39463636
137	0xbe7d3fb2	-0.24731329
138	0xbe2b5f7e	-0.16735646
139	0x3e7ef73c	0.24899
140	0x3e82ca2f	0.2554488
141	0x3e1cbfe9	0.15307583
142	0x3e4b37ef	0.19845556
143	0x3e880116	0.26563329
144	0xbe214940	-0.15750599
145	0x3d0d926d	0.03456347
146	0x3eaacfc1	0.3336163
147	0xbe3d20d9	-0.18469562
148	0xbe188e30	-0.1489799
149	0x3e1c2642	0.15248969
150	0xbe79d7ba	-0.243987
151	0xbe374027	-0.17895566
152	0x3e9fd7b6	0.31219262
153	0xbe6b36ea	-0.22970167
154	0x3e34f064	0.17669827
155	0xbea413c1	-0.3204632
156	0xbec34eb6	-0.3814599
157	0x3e133067	0.14373933
158	0xbe949eb0	-0.2902732
159	0xbe8f3b62	-0.27974993
160	0x3ddb7aa5	0.10716752
161	0xbe042140	-0.12903309
162	0x3e181e38	0.14855278
163	0x3ccad87c	0.02476143
164	0xbdd529d1	-0.104083665
165	0x392c8c24	0.00016455405
166	0xbbab1f38	-0.0052222274
167	0xbe15687a	-0.14590636
168	0xbe94c16a	-0.29053813
169	0xbe6c18d3	-0.23056345
170	0x3ed68e7d	0.41905585
171	0xbe8f71f5	-0.2801663
172	0xbe258dce	-0.16167375
173	0x3e7d576d	0.24740382
174	0xbd387d35	-0.04504128
175	0xbde6a71b	-0.112623416
176	0xbe1cda11	-0.1531756
177	0xbe81f1c1	-0.25379756
178	0xbe2d2d0c	-0.16911715
179	0x3e8573f8	0.2606504
180	0x3e6658ed	0.2249486
181	0x3e680932	0.22659758
182	0x3eba7e00	0.36424255
183	0xbe68a4ee	-0.22719166
184	0x3ea0280c	0.31280553
185	0x3e2a8ffd	0.1665649
186	0xbebae223	-0.36500654
187	0x3d8b12f7	0.06790727
188	0xbe55c09a	-0.20874253
189	0x3bde91d4	0.0067922864
190	0xbe874960	-0.26423168
191	0xbe704ba4	-0.23466355

linear_192_to_256.weight f4 [256, 192]
0	0xbd02958c	-0.0318809
1	0xbd9e3aee	-0.07726084
2	0x3cbddc67	0.023176385
3	0xbcd877b3	-0.026424265
4	0xbcf57ec5	-0.029967675
5	0xbc8c094e	-0.01709428
6	0xbcb7bbc7	-0.022428406
7	0x3d2f3dbd	0.042783488
8	0xbd6a1785	-0.057151336
9	0x3d5e72df	0.05430877
10	0x3d3145d8	0.0432795
11	0xbd205892	-0.039146967
12	0x3d65d6f1	0.056113187
13	0xbc6419d5	-0.013922174
14	0x3d54458d	0.05182414
15	0xbd56da50	-0.052454293
16	0x3c8a9c1f	0.016920147
17	0xbc589b41	-0.013220609
18	0xbd410c9f	-0.047131177
19	0xbc8e1ff1	-0.017349215
20	0xbd931081	-0.07180882
21	0x3d9a9a9f	0.07549023
22	0xbc9fcb5b	-0.019506147
23	0x3d59a95b	0.053140026
24	0xbb9c7103	-0.0047742142
25	0xbcf8bcc3	-0.030363446
26	0xbc7c1ade	-0.015387265
27	0xbcfda817	-0.03096394
28	0xbd452cf1	-0.048138563
29	0x3c2cd5c4	0.010549013
30	0x3c5dc3ac	0.013535421
31	0x3d5c94de	0.05385291
32	0xbd81a81c	-0.063308924
33	0xbd8721cd	-0.06598244
34	0x3d1b2be3	0.03788365
35	0x3d1acb77	0.037791695
36	0x3d4e119f	0.050309774
37	0xbd4c72d8	-0.04991421
38	0x3c95cfd2	0.018287573
39	0x3dac2f3a	0.08407445
40	0x3d7bacb4	0.061444
41	0x3a11f924	0.0005568436
42	0x3d962fe7	0.073333554
43	0x3d6b6dc6	0.057477735
44	0xba207790	-0.0006121332
45	0x3d8d22e6	0.06891422
46	0xbcb9338b	-0.022607585
47	0xbc9da8d5	-0.019245544
48	0xbd832a0f	-0.064045064
49	0xbcdf3e05	-0.027251253
50	0x3cbd028b	0.023072502
51	0x3d969960	0.07353473
52	0x3cc1859f	0.023623286
53	0xbc3a397e	-0.011366246
54	0x3d804791	0.0626365
55	0xbd9e2e34	-0.07723656
56	0x3bdafefb	0.006683228
57	0x3d66d0b6	0.056351386
58	0x3ac6e8bd	0.0015175563
59	0xbb19dce1	-0.0023477601
60	0x3cabf9a9	0.02099307
61	0x3d4f6651	0.050634686
62	0x3d0c877c	0.034308895
63	0xbd9d46a8	-0.07679492
64	0x3b3ada34	0.0028511407
65	0x3d0216b7	0.031759944
66	0x3de9faae	0.114247665
67	0xbd9c299a	-0.07625122
68	0xbcfa1e30	-0.030531973
69	0xbd672c2b	-0.056438606
70	0x3d1d3770	0.038382947
71	0xbb3d0809	-0.00288439
72	0x3c540278	0.012940042
73	0xbd778f4b	-0.06043939
74	0x3cb760d1	0.022385033
75	0x3cc561c4	0.02409447
76	0x3c5a7759	0.013334119
77	0xbcbd341c	-0.023096137
78	0xbc340d52	-0.010989504
79	0xbcb7b35c	-0.022424392
80	0xbd34cae3	-0.0441388
81	0xbd7d249c	-0.06180249
82	0xbb16dbf0	-0.0023019277
83	0x3d558a78	0.052134007
84	0xbd3aad4c	-0.045575425
85	0xbd3cbb5a	-0.04607711
86	0x3bbb822c	0.005722305
87	0x3d213dfa	0.039365746
88	0xbb515a6d	-0.0031944767
89	0x3d20c580	0.03925085
90	0xbd3d19ed	-0.046167303
91	0xbd91a27c	-0.071110696
92	0xbbf0bc63	-0.007346676
93	0xbd863b5c	-0.06554291
94	0xbd28535f	-0.041095134
95	0x3cd99956	0.026562374
96	0xbcebbca4	-0.028776474
97	0x3ab1290b	0.001351626
98	0xbb4517db	-0.0030074033
99	0x3d70820c	0.058717772
100	0x3d4bef1e	0.049788587
101	0x3c26a592	0.010171311
102	0xbd356dd6	-0.0442942
103	0xbb8f6679	-0.0043762294
104	0x3d3e89a7	0.046517994
105	0xbce19224	-0.027535506
106	0xbd15d41e	-0.036579244
107	0x3d48cbb9	0.04902241
108	0xbd5f8474	-0.054569677
109	0xbc9149e1	-0.017735424
110	0xbc88179b	-0.016612818
111	0xbd8086b5	-0.06275693
112	0xbcb8e077	-0.02256797
113	0xbcec4398	-0.028840825
114	0xbd585796	-0.052817903
115	0x3d2b3a87	0.041803863
116	0xbd89dddb	-0.06731769
117	0x3d8769d0	0.06611979
118	0xbcb30542	-0.021853093
119	0x3ce8253a	0.028338064
120	0x3d5f2340	0.054476976
121	0xbd3aa6ec	-0.045569345
122	0xbd5f74be	-0.054554693
123	0xbd65ef5f	-0.056136485
124	0xbd780f6b	-0.06056158
125	0xbd9b6997	-0.07588499
126	0x3c6f65b7	0.014611653
127	0xbb9c3543	-0.0047670915
128	0x3d85c461	0.06531597
129	0xbcb00edf	-0.021491466
130	0xbd6d4a99	-0.05793247
131	0xbc69c34a	-0.014267752
132	0xbd25b4aa	-0.040455498
133	0xbd86d488	-0.06583506
134	0xbcec4ecd	-0.028846169
135	0xbc2052be	-0.009785352
136	0x3d9634eb	0.07334312
137	0x3d3e2e73	0.046431016
138	0xbca8c6a1	-0.020602526
139	0xb93ed33b	-0.00018198501
140	0xbbadc84a	-0.0053034173
141	0x3d2f746c	0.042835638
142	0x3c7bded3	0.01537295
143	0x3d53f44e	0.05174666
144	0x3d9dae3c	0.07699248
145	0x3cb8cbbd	0.022558087
146	0x3d425132	0.047440715
147	0xbcc82ec3	-0.02443636
148	0x3da38f02	0.07986261
149	0xbbd85cba	-0.0066028507
150	0x3d80e9a2	0.06294562
151	0x3d8a382c	0.06748995
152	0x3d75f034	0.06004353
153	0x3bb7c2ba	0.00560793
154	0xbcbb27dc	-0.022846155
155	0x3d7f4560	0.06232202
156	0x3d907bca	0.07054861
157	0x3d3782f8	0.044802636
158	0x3d8f1969	0.069872685
159	0x3d6b9498	0.057514757
160	0xbca41941	-0.020031573
161	0x3c8bbe91	0.017058643
162	0x3d34a1ee	0.04409974
163	0x3c0c7f7c	0.0085753165
164	0x3daafb26	0.08348684
165	0x3cfe65a3	0.031054324
166	0x3d1607cb	0.036628526
167	0x3ae10f17	0.0017170635
168	0xbd4cfe6e	-0.05004733
169	0x3b8bb438	0.004263427
170	0x3be064c5	0.00684795
171	0x3c1cb1d7	0.009563885
172	0x3b3428b9	0.0027490093
173	0x3d359bc9	0.04433802
174	0x3e4ca082	0.19983104
175	0x3cb61e03	0.022231108
176	0xbc2ef550	-0.010678604
177	0xbd79bf51	-0.06097347
178	0xbd23f027	-0.04002395
179	0x3cddc791	0.0270727
180	0x3d70a041	0.05874658
181	0x3d42f98e	0.047601275
182	0xbd98fce2	-0.074701086
183	0xbc80f632	-0.015742395
184	0xbd914da2	-0.070948854
185	0xbd3f5cf3	-0.046719503
186	0x3d39089a	0.04517422
187	0x3d75d070	0.060013235
188	0xbc6c7f2d	-0.014434618
189	0x3caf78f6	0.021419983
190	0x3d9f2a5e	0.07771753
191	0x3da0f331	0.07858885
192	0xbc283752	-0.010267096
193	0x394a6173	0.00019300524
194	0x3cf5f256	0.030022781
195	0x3d891d20	0.06695008
196	0x3c913347	0.017724646
197	0x3cafd4ac	0.021463715
198	0x3ca8f514	0.020624675
199	0x3d5faf3c	0.054610476
200	0xbd8a0916	-0.06740014
201	0xbd095721	-0.03353036
202	0xbc83b827	-0.016079022
203	0xbd0e38e1	-0.034722213
204	0xbb72c417	-0.0037043148
205	0xbd856525	-0.065134324
206	0xbda09af2	-0.078420535
207	0x3ccd3bfe	0.02505302
208	0x3d7bab5d	0.06144272
209	0x3d954a78	0.072895944
210	0xbda00fc6	-0.078155085
211	0xbce6f83b	-0.028194537
212	0x3d640485	0.055668373
213	0x3b82c03f	0.0039902027
214	0x3cab4cd2	0.020910654
215	0x3d59211e	0.0530101
216	0xbce2bd89	-0.027678268
217	0x3cd1fede	0.025634225
218	0x3b994664	0.0046775807
219	0x3d1bf8a0	0.038078904
220	0xbd06397a	-0.032769658
221	0xbd70f964	-0.058831587
222	0xbcdc1cf2	-0.026869271
223	0x3ce47c69	0.027891355
224	0x3d055553	0.032552075
225	0xbcf35f2b	-0.029708466
226	0xbd98042f	-0.07422673
227	0xbd378fe6	-0.044814967
228	0x3d1da205	0.038484592
229	0x3ce69170	0.028145522
230	0x3d4cf353	0.05003674
231	0x3d803930	0.06260908
232	0x3c8c373d	0.017116183
233	0x3d92c1c2	0.071658626
234	0x3d99ffcf	0.07519495
235	0x3cf44a1f	0.0298205
236	0xbc884fc5	-0.0166396
237	0xbc7f6c93	-0.015589851
238	0xbc8c5840	-0.017131925
239	0x3d2983a0	0.041385293
240	0x3c2f19f1	0.010687337
241	0x3d0692dc	0.0328549
242	0xbcd14f90	-0.025550634
243	0x3cd29be3	0.025709098
244	0x3cd4376f	0.025905339
245	0x3c181b39	0.009283834
246	0x3d9b93a5	0.0759652
247	0x3cfbd0a4	0.030739136
248	0xbc2a4f11	-0.010394827
249	0x3d6dc049	0.058044706
250	0xbcf951ec	-0.030434571
251	0xbda4401b	-0.0802004
252	0xbd88a7c9	-0.066726275
253	0xbd53ae4c	-0.051679894
254	0x3d31466c	0.04328005
255	0x3bd8c92a	0.0066157775

linear_192_to_256.bias f4 [256]
0	0xbe8a55c5	-0.27018562
1	0xbe807188	-0.25086617
2	0x3e85ebaf	0.26156375
3	0x3e8cbe69	0.2748902
4	0x3e35b523	0.1774488
5	0xbe20e48c	-0.15712184
6	0xbe123009	-0.14276136
7	0x3e530a8a	0.20609489
8	0xbe879339	-0.2647951
9	0x3e806809	0.25079373
10	0xbe8fe3fa	-0.2810362
11	0x3e80c7a1	0.25152305
12	0x3e72a502	0.23695758
13	0xbe713e23	-0.2355886
14	0x3e6b9a59	0.23008098
15	0xbe4ba133	-0.19885711
16	0xbe3d2349	-0.18470491
17	0x3e6f01fd	0.23340602
18	0xbe1413b3	-0.1446064
19	0xbe4e9307	-0.20173274
20	0x3e653631	0.22383954
21	0xbe5df46a	-0.21675268
22	0xbe111930	-0.14169765
23	0xbe832736	-0.25615853
24	0x3e31058b	0.1728727
25	0x3e893211	0.2679601
26	0xbe44f6de	-0.19234797
27	0x3e71b4a5	0.23604067
28	0x3e88cb3f	0.26717564
29	0x3e28e793	0.16494589
30	0xbe889ed7	-0.26683685
31	0xbe3afb25	-0.18259867
32	0x3e1d85d6	0.15383086
33	0x3e6fbb67	0.23411332
34	0xbe242c3d	-0.160325
35	0xbe7d5cd9	-0.2474245
36	0x3e8dcf48	0.27697206
37	0x3e5fa882	0.21841624
38	0xbe6de1ca	-0.23230663
39	0xbe4b9332	-0.1988037
40	0xbe8c1e33	-0.2736679
41	0x3e862822	0.26202494
42	0xbe2fc40b	-0.17164628
43	0xbe5d2724	-0.21596962
44	0x3e5b56c2	0.21419814
45	0x3e670060	0.22558737
46	0x3e21d4d5	0.15803845
47	0x3e4689f7	0.19388567
48	0x3e179347	0.14802276
49	0x3e349352	0.17634323
50	0x3e37843c	0.17921537
51	0xbe8feb3b	-0.28109154
52	0x3e715ef1	0.23571374
53	0x3e7145f6	0.23561844
54	0xbe1fefdb	-0.15618841
55	0xbe34a28f	-0.17640136
56	0xbe67019b	-0.22559206
57	0xbe7efba9	-0.24900688
58	0xbe6ceab8	-0.23136413
59	0xbe3e6b0b	-0.18595521
60	0x3e8acd8d	0.27109948
61	0xbe54657d	-0.2074184
62	0xbe1adca1	-0.15123226
63	0x3e496bc9	0.19670023
64	0x3e5d58b7	0.21615873
65	0x3e8da413	0.2766424
66	0xbe3482d5	-0.17628033
67	0x3e365eca	0.17809597
68	0x3e5230e1	0.20526458
69	0xbe6e63e9	-0.232803
70	0x3e72297b	0.23648636
71	0xbe76da97	-0.24106823
72	0xbe4a3d31	-0.19749905
73	0xbe712efb	-0.23553078
74	0x3e226edc	0.15862602
75	0xbe847be3	-0.25875768
76	0x3e275383	0.16340451
77	0xbec11b04	-0.37715924
78	0xbe60fdf2	-0.21971872
79	0x3e550fd1	0.20806815
80	0x3e39ff7a	0.18163863
81	0x3e8188b6	0.25299615
82	0xbe753e2b	-0.23949496
83	0xbe3275fd	-0.17427821
84	0xbe7ee45b	-0.24891798
85	0x3e84a705	0.25908676
86	0x3e15c8b2	0.1462734
87	0xbe790efd	-0.24322124
88	0xbe24be1b	-0.16088144
89	0x3e5231b5	0.20526774
90	0x3e84b84f	0.25921866
91	0x3e33ef61	0.17571785
92	0xbe60b644	-0.21944529
93	0xbe88add2	-0.26695114
94	0xbe8730e5	-0.2640449
95	0xbe8b3018	-0.2718513
96	0xbe8f2e3f	-0.2796497
97	0x3e37591c	0.17905086
98	0x3e631311	0.22175242
99	0xbe80d2db	-0.2516087
100	0x3e502f63	0.20330577
101	0x3e7eaa6f	0.24869703
102	0x3e6b8ba1	0.23002483
103	0x3e63eca6	0.22258243
104	0xbe646c45	-0.22306927
105	0x3e9084a9	0.28226212
106	0x3e19c843	0.150178
107	0xbe8014da	-0.25015908
108	0xbe5ff1c1	-0.21869566
109	0x3e14a9e3	0.14517932
110	0xbe0a593e	-0.13510606
111	0x3e5d0b0f	0.2158625
112	0xbe8aae8d	-0.27086297
113	0xbe32e8a8	-0.17471564
114	0x3e85d5cf	0.26139686
115	0x3e16b61e	0.1471791
116	0x3e10a1b9	0.14124192
117	0x3e4e9235	0.20172961
118	0xbe4c5e96	-0.19957957
119	0xbe83ef9d	-0.25768748
120	0x3e40d20b	0.18830125
121	0x3e84d906	0.25946826
122	0xbe35eed8	-0.17766893
123	0x3e352f67	0.17693864
124	0xbe33336c	-0.17500085
125	0x3e8e720a	0.2782138
126	0x3e8c0e71	0.27354768
127	0xbe11b143	-0.14227776
128	0x3e7dd417	0.24787937
129	0xbe1cd7e5	-0.15316732
130	0xbe212682	-0.15737346
131	0x3e71b265	0.23603208
132	0x3e652d07	0.22380458
133	0x3e261b9a	0.16221467
134	0xbe790e55	-0.24321873
135	0xbe57898c	-0.21048564
136	0xbe52ebd9	-0.20597781
137	0x3e570484	0.20997816
138	0xbe8db38a	-0.2767604
139	0xbe16cba6	-0.14726123
140	0x3e4c947c	0.19978517
141	0xbe16e4e0	-0.14735746
142	0xbe24735e	-0.16059634
143	0x3e1f82ed	0.15577288
144	0xbe5f0776	-0.2178019
145	0xbe8c23dd	-0.27371112
146	0xbe8306d6	-0.25591153
147	0xbe7bcafa	-0.24589148
148	0xbe700fba	-0.23443499
149	0x3e624347	0.22095977
150	0x3e89f10d	0.2694172
151	0xbe86df45	-0.26342216
152	0xbe76da5d	-0.24106736
153	0x3e459264	0.19294125
154	0xbe761efa	-0.24035254
155	0x3e6386d2	0.22219399
156	0xbe817618	-0.2528541
157	0x3e34284d	0.17593499
158	0x3e7c7c42	0.24656776
159	0x3e4f5aa3	0.20249419
160	0x3e61bcd6	0.22044691
161	0x3e29ce89	0.16582693
162	0xbe415947	-0.18881713
163	0xbe1df0f0	-0.15423942
164	0xbe2e1a32	-0.1700218
165	0x3e639c60	0.22227621
166	0xbe89666d	-0.26835957
167	0xbe7e2292	-0.24817875
168	0x3e858386	0.26076907
169	0x3e65f3f4	0.22456342
170	0x3e40fc7a	0.18846312
171	0x3e7424f2	0.23842219
172	0xbe8302ad	-0.2558798
173	0xbe68228c	-0.22669429
174	0xbe8234d1	-0.2543092
175	0x3e65eab5	0.22452815
176	0x3e7347c7	0.2375785
177	0x3e39001a	0.18066445
178	0x3e3a6de4	0.18205982
179	0xbe713f0f	-0.23559211
180	0xbe6823f9	-0.22669972
181	0x3e2f7b36	0.17136845
182	0xbe3f1b0c	-0.18662661
183	0x3e456819	0.19277991
184	0xbe9204f9	-0.2851942
185	0x3dd67d20	0.104730844
186	0xbe2e8fe0	-0.17047071
187	0x3e1e7535	0.15474398
188	0x3e340cd0	0.17583013
189	0xbe381c8a	-0.17979637
190	0xbe286986	-0.16446504
191	0xbe8033e0	-0.25039577
192	0xbe8cf2d2	-0.27529007
193	0xbe447243	-0.19184212
194	0x3e25ac36	0.16178975
195	0xbe87b4c9	-0.26505116
196	0x3e8f21ce	0.27955478
197	0xbe323733	-0.1740387
198	0xbe3c4e51	-0.1838925
199	0xbe5faf2a	-0.21844164
200	0x3e8aaa25	0.27082935
201	0xbe8142b0	-0.2524619
202	0xbe4fb615	-0.20284303
203	0xbe4c197e	-0.199316
204	0xbe5e2104	-0.21692282
205	0xbe1f2ce1	-0.15544464
206	0x3e26cbfc	0.16288751
207	0xbe8fc960	-0.28083324
208	0xbe7ebfdb	-0.24877875
209	0x3e2d1032	0.1690071
210	0xbe3deab6	-0.18546566
211	0x3e6d889b	0.23196642
212	0xbe81224d	-0.25221482
213	0xbe44b78d	-0.19210644
214	0x3e4bffac	0.1992175
215	0x3e4d8a0f	0.20072196
216	0xbe27bede	-0.16381404
217	0xbec34204	-0.38136303
218	0xbe39a948	-0.18130982
219	0xbe5904f2	-0.21193293
220	0x3e616b5c	0.2201361
221	0xbe2faf56	-0.17156729
222	0xbe7fd09c	-0.24981922
223	0x3e4cd96e	0.20004818
224	0x3e123560	0.14278173
225	0xbe1d216b	-0.15344779
226	0x3e8cc234	0.27491915
227	0xbe3a4bd2	-0.18192986
228	0xbe6da92e	-0.23209068
229	0xbe8804ea	-0.2656625
230	0xbe85e96a	-0.26154643
231	0xbe4fdce6	-0.2029911
232	0x3e25c88e	0.16189787
233	0xbe2d9d86	-0.16954622
234	0x3e863e85	0.26219574
235	0xbe119da7	-0.14220296
236	0x3e32569d	0.17415853
237	0xbe91dc01	-0.28488162
238	0x3e7b0bee	0.2451627
239	0xbe514edd	-0.2044024
240	0x3e18c438	0.14918602
241	0xbe16a3ee	-0.14710972
242	0x3e5dd607	0.21663676
243	0xbe3dd5d1	-0.18538596
244	0xbe6cad72	-0.23113039
245	0x3e294d28	0.16533339
246	0xbe593003	-0.21209721
247	0x3e418763	0.18899302
248	0xbe42d9c1	-0.19028379
249	0xbe217ec7	-0.15771018
250	0xbe19724f	-0.14985012
251	0xbe5b264a	-0.21401325
252	0xbe446238	-0.19178092
253	0xbe6b4883	-0.2297688
254	0xbe7a1886	-0.24423417
255	0xbe5e07f8	-0.21682727
